deepsdf/models/strawberry_32/LatentCodes/latest.pth (torch, 113320 bytes, 1 tensors)

weight f4 [879, 32]
0	0xbd88ba3c	-0.066761464
1	0x3cfeb343	0.031091338
2	0xbcecfcec	-0.028929196
3	0x3bf4978d	0.0074643553
4	0x3bb9f429	0.005674858
5	0x3cdbed26	0.02684648
6	0xbcc5e4ae	-0.024156895
7	0xbc2da051	-0.010597304
8	0xbd14740f	-0.036243495
9	0xbd95e608	-0.073192656
10	0xbcf7a9fe	-0.030232426
11	0x3b83ca16	0.0040218933
12	0x3d15b023	0.03654493
13	0xbd02bed3	-0.031920265
14	0x3cb4cf64	0.022071548
15	0x3d8b5d97	0.0680496
16	0xbb1e4e25	-0.0024155464
17	0xbca4713e	-0.02007353
18	0xbd01bb14	-0.031672552
19	0x3cad36fe	0.021144386
20	0x3cb3152f	0.021860687
21	0xbd567b37	-0.0523636
22	0xbd0e254b	-0.034703534
23	0xbaaad22b	-0.0013032606
24	0xbdf702d3	-0.120610856
25	0xba67f7fd	-0.0008848904
26	0xbc4f2fb8	-0.012645654
27	0xbab8e3f8	-0.0014106026
28	0xbe3956b8	-0.18099487
29	0xbcc7dfc4	-0.024398692
30	0x3d43ed86	0.047833942
31	0xbc2e8a78	-0.010653131
32	0xbc8d0604	-0.017214783
33	0x3ce31a26	0.02772243
34	0xbc600b06	-0.013674503
35	0xbd0a6304	-0.033785835
36	0xbd0a90f0	-0.03382963
37	0x3d118868	0.035530478
38	0xbd356dee	-0.04429429
39	0xbaf005c4	-0.0018312265
40	0xbcf5538e	-0.029947069
41	0xbd0fab1d	-0.035075296
42	0x3bc8a5ae	0.006123266
43	0xbca6db82	-0.020368341
44	0x3ccfe04e	0.025375511
45	0xbc9d55bc	-0.01920592
46	0x3cba9783	0.022777325
47	0x3d6f69f2	0.058450647
48	0xbcafc564	-0.021456428
49	0xba64116c	-0.0008700106
50	0xbd2aa27e	-0.04165887
51	0xbce895ff	-0.028391836
52	0xbcc77c1c	-0.024351172
53	0xbcaad5e1	-0.020853939
54	0xbc44d842	-0.0120144505
55	0x3c43c991	0.011949913
56	0x3d12d38f	0.03584629
57	0x3cc61f06	0.024184715
58	0xbd0c625c	-0.03427349
59	0xbc4e9dc1	-0.012610854
60	0x3c935764	0.017986007
61	0x3cd719a4	0.026257344
62	0x3c978812	0.0184975
63	0xbb0ad46c	-0.0021183742
64	0xba0fe069	-0.0005488457
65	0xbb409022	-0.0029382785
66	0x3ba5105e	0.0050373515
67	0xbb433522	-0.0029786308
68	0x38d0d322	9.9575394e-05
69	0xbcfc8e3d	-0.030829543
70	0xbd4e1fac	-0.050323173
71	0xbd2e256a	-0.04251615
72	0x3c5293e0	0.012852639
73	0xbb9febc3	-0.0048804
74	0xbd4fa68e	-0.05069595
75	0xbc83fe55	-0.016112486
76	0xbc40e62b	-0.011773626
77	0x3ba9fc36	0.0051875366
78	0xbc40eaac	-0.0117747
79	0xbc9226c3	-0.017840749
80	0x3d0abe88	0.03387311
81	0xbcc533c8	-0.024072543
82	0xbc1e214c	-0.009651493
83	0xbd231a9c	-0.0398203
84	0x3b56ff12	0.0032805842
85	0x3c3a0b34	0.01135521
86	0xbb8a0000	-0.004211426
87	0x3d172300	0.036898613
88	0xbc5cd7ae	-0.013479156
89	0xbcdb6d66	-0.026785564
90	0xbcb11456	-0.021616142
91	0xbce76f3f	-0.028251288
92	0xbda5a4e1	-0.08088089
93	0xbd13b2fd	-0.03605937
94	0xbd01f21c	-0.031725034
95	0x3bbecfbc	0.0058231037
96	0xbc01eb32	-0.00792961
97	0x3c5ad9ca	0.013357589
98	0x39ce4860	0.00039345305
99	0x3c3bca1c	0.011461761
100	0xbd86f1c6	-0.065890834
101	0xbcb8ac91	-0.022543224
102	0x3c0f3f08	0.008743055
103	0xbbc0e7b6	-0.005886997
104	0x3cc221b7	0.023697717
105	0xbbae3c20	-0.005317226
106	0x3d44442f	0.047916587
107	0xbd2a4395	-0.041568357
108	0xbd6e520a	-0.058183707
109	0x3bf0f2ae	0.0073531484
110	0xbc4e6501	-0.012597323
111	0xbd961585	-0.07328323
112	0xbc4c136b	-0.0124558015
113	0x3d08f7b4	0.033439353
114	0xbc35598b	-0.011068712
115	0x3c3a5f2d	0.011375231
116	0x3cb34bea	0.021886785
117	0x3c6692a5	0.014073049
118	0x3bc825e9	0.006108035
119	0xbc544e53	-0.012958127
120	0xbc66bc1d	-0.014082936
121	0x3c92672f	0.017871467
122	0xbca3152b	-0.019907555
123	0xbcf0f96e	-0.029415812
124	0xbc2d3e66	-0.010573959
125	0xbbf3f941	-0.007445485
126	0x3bb36086	0.005474153
127	0xbb52a8dc	-0.0032144105
128	0xba38501e	-0.00070309814
129	0xbd030977	-0.03199145
130	0x3ba367f0	0.0049867555
131	0x3c3836ca	0.0112435315
132	0xbcf3015a	-0.02966373
133	0xbc21d8fc	-0.009878393
134	0x3ca07a01	0.019589426
135	0xbd08dcf3	-0.03341384
136	0xbb264363	-0.0025369755
137	0xbc862234	-0.016373731
138	0xbc8b2047	-0.016983164
139	0x3cc442d5	0.02395765
140	0xbd5440e0	-0.051819682
141	0x3c50c637	0.012742571
142	0xbcecb937	-0.028896911
143	0xbca81dc2	-0.020522002
144	0xbaa80d5d	-0.0012821365
145	0x3c7b757c	0.015347835
146	0xbca665a7	-0.020312143
147	0x3ccb01bf	0.024781106
148	0x3bf4638d	0.0074581564
149	0xbc3733dd	-0.011181799
150	0x3bdfcb26	0.006829637
151	0xbcd1311d	-0.025536114
152	0x3c8e12fb	0.017343035
153	0xbbcccd93	-0.0062500923
154	0x3afcd932	0.0019290803
155	0x3b74221c	0.0037251776
156	0x3d4c3740	0.049857378
157	0xbb519c09	-0.0031983873
158	0xbc2d3cf3	-0.010573613
159	0x3d459bb9	0.04824421
160	0xbc860d08	-0.016363636
161	0xbcf8bd34	-0.030363657
162	0x3d094154	0.033509567
163	0xbc077e0f	-0.008269801
164	0xbcd80e71	-0.026374074
165	0x3c4737bf	0.012159287
166	0xbcd123cc	-0.025529765
167	0xbc3ca25b	-0.011513318
168	0xbc79d355	-0.015248139
169	0xbc9ca254	-0.019120373
170	0xbc25e346	-0.010124987
171	0x3c75e120	0.015007287
172	0xbce2bc07	-0.027677549
173	0x3d063aab	0.032770794
174	0xbccb14fd	-0.024790281
175	0xbc713fed	-0.014724714
176	0x3c068514	0.008210439
177	0xbc9cfffd	-0.019165033
178	0x3cae08ea	0.021244485
179	0x3c32e57d	0.010918972
180	0x3cde79de	0.02715772
181	0x3b8679be	0.0041038683
182	0x3c50c70a	0.012742767
183	0xbc91129c	-0.017709069
184	0x3c14033b	0.009033973
185	0xbd37d91b	-0.044884782
186	0xbd22b835	-0.039726455
187	0xbbaa18fc	-0.0051909667
188	0x3d9da907	0.07698255
189	0xbd42e1eb	-0.047578733
190	0xbad1ffae	-0.0016021633
191	0x3c95034f	0.018190054
192	0x3ca6de68	0.020369723
193	0xbcfeed15	-0.031118909
194	0x3aea0831	0.0017855224
195	0x3c706a95	0.014673849
196	0xbc99fe1d	-0.018797928
197	0x3bd660e9	0.0065423143
198	0x3c9455ce	0.018107321
199	0xbcd01c62	-0.025404159
200	0x3d10f49c	0.035389528
201	0xbd3c1f48	-0.04592827
202	0xbd4cbcd5	-0.04998477
203	0xbc830c3d	-0.015997047
204	0x3d20e046	0.039276384
205	0x3c1ecf1c	0.009692933
206	0x3ba35379	0.004984316
207	0xbc8e9056	-0.01740281
208	0x3b87039f	0.0041203047
209	0x3c82f788	0.015987173
210	0xbb8c82c6	-0.0042880503
211	0xb9a174e1	-0.00030795395
212	0x3c6fd3d1	0.014637903
213	0x3b75c6ac	0.003750245
214	0x3cac9ee8	0.021071866
215	0x3c820d04	0.015875347
216	0x3d8ca1b0	0.06866777
217	0x3d678b17	0.05652913
218	0x3c80cd4f	0.015722899
219	0xbd188316	-0.03723439
220	0x3dc73470	0.097267985
221	0x3c5cc9cb	0.013475846
222	0x3c95f4e0	0.018305242
223	0xbcb84951	-0.022495897
224	0xbc5e71b3	-0.013576913
225	0x3ce4db0b	0.02793648
226	0x3ca80890	0.020511895
227	0xbc673505	-0.014111762
228	0x3c8c8159	0.017151522
229	0xbc2dbeaf	-0.010604545
230	0x3ccacd1d	0.024756009
231	0xbc40c3f3	-0.011765468
232	0xbd1d5a77	-0.038416352
233	0x3cbf72c0	0.023370147
234	0x3ca42165	0.020035455
235	0x3d080965	0.033212084
236	0x3b43e0ff	0.0029888747
237	0x3a7acaab	0.0009566943
238	0xbc29be47	-0.010360307
239	0x3d287947	0.041131284
240	0xbc0d58ee	-0.0086271595
241	0xbd127af5	-0.035761792
242	0x3bc2d329	0.0059455824
243	0xbbf49230	-0.007463716
244	0x3b8ea2e5	0.0043529146
245	0xbb91a868	-0.0044451244
246	0x3b8fa0de	0.0043831905
247	0xba403d50	-0.0007333355
248	0x3a9cbd4d	0.0011958271
249	0xbce6c852	-0.028171692
250	0xbd1a6280	-0.037691593
251	0xbc502ad8	-0.012705527
252	0x3d921e73	0.07134714
253	0x3d236edf	0.039900657
254	0x3c8c4f25	0.017127583
255	0xbc7a3c6a	-0.015273193
