deepsdf/models/sweetpepper_32/LatentCodes/latest.pth (torch, 118507 bytes, 1 tensors)

weight f4 [919, 32]
0	0xbc616f3a	-0.013759429
1	0x3d758ba8	0.05994764
2	0x3e2cae71	0.16863419
3	0xbd2f9f68	-0.04287663
4	0xbda1e5eb	-0.079051815
5	0x3d2177eb	0.039421003
6	0x3d20a2ef	0.039217886
7	0xbc9b89aa	-0.018986542
8	0xbd90bdf6	-0.07067482
9	0x3b601d17	0.0034197026
10	0x3cee6018	0.029098555
11	0xbd22f143	-0.039780866
12	0x3debe8f8	0.11519045
13	0x3d5b5283	0.053545486
14	0x3e0ddb48	0.1385318
15	0x3d2f0d44	0.04273726
16	0x3c7da772	0.015481817
17	0x3c2c95df	0.010533779
18	0x3cb789b6	0.022404533
19	0xbd70985f	-0.058739062
20	0xbd059ff7	-0.032623257
21	0xbd8bf669	-0.068341084
22	0x3d175509	0.03694633
23	0x3d9f6501	0.07782937
24	0xbda0c2da	-0.07849665
25	0xbda55a07	-0.08073812
26	0x3c8bad80	0.017050505
27	0xbbbf1b75	-0.0058321306
28	0xbd6ae00f	-0.057342585
29	0xbd2a7fa0	-0.04162562
30	0x3cc575ea	0.024104077
31	0x3e54d1a7	0.20783101
32	0xbe2812b7	-0.16413389
33	0x3c63560b	0.013875495
34	0x3e054214	0.13013488
35	0xbda68800	-0.08131409
36	0xbe8cf628	-0.27531552
37	0x3ce76509	0.02824642
38	0xbd1b1539	-0.037862036
39	0xbddcbe4c	-0.10778484
40	0xbdcd10d8	-0.10012978
41	0x3db35842	0.08757068
42	0x3d149bfa	0.036281563
43	0xbd8dd134	-0.06924668
44	0x3c022797	0.007944009
45	0x3e4b70b5	0.19867213
46	0x3d85fd2a	0.06542428
47	0x3ca4b099	0.02010374
48	0x3a237288	0.0006235023
49	0xbc3e058a	-0.011598
50	0xbd55d492	-0.052204676
51	0x3de093c2	0.109656826
52	0xbdde91e1	-0.10867668
53	0xbcf66bd0	-0.030080706
54	0xbe04f281	-0.12983133
55	0xbbde2c63	-0.0067801937
56	0xbb7b3e6f	-0.0038336774
57	0x3d47e8bf	0.04880595
58	0x3dc45f17	0.095884494
59	0xbc81243b	-0.015764346
60	0xbd6a418f	-0.057191428
61	0xbd9e4934	-0.07728806
62	0x3e01700d	0.126404
63	0x3d56a5e2	0.052404292
64	0x3db078e8	0.08616811
65	0x3c9fabb9	0.019491063
66	0xbde68d51	-0.11257423
67	0x3d227be1	0.03966892
68	0xbd86e473	-0.06586542
69	0xbcfbe357	-0.030748053
70	0x3d3e8efa	0.04652307
71	0x3d494265	0.049135584
72	0x3b476d63	0.003043019
73	0xbcac8e4d	-0.021063948
74	0xbd8fe03f	-0.070251934
75	0xbdc003f9	-0.09375758
76	0xbcc6a933	-0.024250602
77	0xbd551f33	-0.052031707
78	0xbd044b93	-0.032298636
79	0x3d33d1c6	0.043901227
80	0xbca84fb3	-0.020545816
81	0xbb9bd465	-0.004755544
82	0xbd990c87	-0.074730925
83	0xbd178f91	-0.03700215
84	0xbc37b678	-0.0112129375
85	0xbc920495	-0.01782445
86	0xbbac46b7	-0.0052574533
87	0x3bb51790	0.0055264905
88	0xbd2f8311	-0.042849604
89	0xbcd786fb	-0.02630948
90	0x3d9102ae	0.07080589
91	0xbb8d4a25	-0.004311817
92	0xbcb49605	-0.022044191
93	0x3c3790d4	0.011203963
94	0xbd508cd6	-0.05091556
95	0x3c05fa89	0.008177408
96	0xbcb97f14	-0.022643603
97	0xbda890e2	-0.08230759
98	0xbe1cfa14	-0.15329772
99	0x3af8a984	0.0018971418
100	0x3d2178ad	0.039421726
101	0x3db5d4ee	0.08878504
102	0x3d5d3d48	0.05401352
103	0xbc7b3753	-0.015333015
104	0x3ca2a889	0.019855754
105	0xbd1c7f21	-0.038207177
106	0x3d0daea5	0.034590382
107	0xbd7c8eca	-0.06165961
108	0x3dd8b333	0.105810545
109	0xbd2a680f	-0.041603144
110	0xbc18d6a0	-0.009328514
111	0xbd817fd1	-0.06323207
112	0x3c87998b	0.016552707
113	0xbcf0004c	-0.029297017
114	0x3d060a15	0.03272446
115	0xbbdfe1af	-0.0068323235
116	0xbcf0ed44	-0.029410012
117	0x3d12e2e7	0.035860922
118	0x3d873792	0.06602396
119	0xbbba4484	-0.005684437
120	0xbd1686de	-0.036749713
121	0xbd083dfe	-0.033262245
122	0xbcbd9646	-0.023142945
123	0xbd63bf03	-0.055602085
124	0xbd88657d	-0.06659982
125	0xbc85b2cb	-0.016320607
126	0x3bf1e49b	0.007381988
127	0xbc70e06b	-0.014701943
128	0x3c586fcf	0.013210251
129	0x3d087192	0.033311434
130	0xbd84ca16	-0.06483857
131	0xbc866105	-0.016403684
132	0xbca72f96	-0.020408433
133	0x3acde495	0.0015708382
134	0xbd28bd46	-0.04119613
135	0x3d4b6235	0.049654204
136	0xbbd8aeb1	-0.0066126217
137	0xbd831446	-0.06400351
138	0xbd8b4ce7	-0.06801777
139	0xbc8619ab	-0.016369661
140	0x3daa1a34	0.08305779
141	0xbd16851d	-0.03674804
142	0xbd3963e4	-0.04526128
143	0xbd455362	-0.048175223
144	0x3bab5a36	0.00522926
145	0xbccd3151	-0.02504793
146	0xbc7b0cee	-0.015322907
147	0xbca57f56	-0.02020232
148	0x3b9eec87	0.0048499736
149	0x3caacbf4	0.020849206
150	0xbbc4722f	-0.005995057
151	0xbcab89f4	-0.020939805
152	0x39b1f3b4	0.00033941644
153	0x3c024f17	0.007953427
154	0x3bf94de2	0.0076081613
155	0xbcb227b3	-0.021747446
156	0xbc58bc99	-0.013228559
157	0xbc73cb7f	-0.01488006
158	0x3cd3f9f8	0.02587603
159	0x3d60406e	0.054748945
160	0x3d3e55cc	0.04646854
161	0xbdaa90b8	-0.08328384
162	0xbc5e9885	-0.013586168
163	0xbdb7bffa	-0.089721635
164	0xbe090a8d	-0.13382931
165	0x3d8f8a9b	0.07008859
166	0x3ca453a1	0.020059409
167	0x3d87ea22	0.06636454
168	0xbc5aff5a	-0.013366545
169	0xbe00682b	-0.12539737
170	0xbd9a6c3b	-0.075401746
171	0xbadef8fa	-0.0017011457
172	0xbcb29fba	-0.02180468
173	0xbd811270	-0.06302345
174	0xbdc83505	-0.09775738
175	0x3e57b8cd	0.2106659
176	0xbde9a6c4	-0.11408761
177	0xbc3dae4f	-0.011577203
178	0xbd883fb8	-0.066527784
179	0x3d361348	0.04445198
180	0x3d02d67e	0.031942837
181	0xbc49b18e	-0.012310399
182	0x3cfdb16f	0.030968396
183	0xbc0ebeb3	-0.008712458
184	0xbcde700a	-0.027153034
185	0x3deac23c	0.114628285
186	0xbccb88fb	-0.02484559
187	0x3c1faf5f	0.009746402
188	0x3d8041c0	0.06262541
189	0x3d32626e	0.0435509
190	0x3e2ee9f5	0.17081435
191	0xbc02341e	-0.007946996
192	0x3da618c0	0.081101894
193	0x3cd53f57	0.02603118
194	0x3bc1dd33	0.0059162616
195	0x3d90984c	0.07060298
196	0xbd954ffb	-0.07290646
197	0xbd31bdb7	-0.043393817
198	0x3cd653cb	0.026163002
199	0xbd6bb952	-0.057549782
200	0xbcd40dd4	-0.0258855
201	0xbe078238	-0.13233268
202	0x3d665579	0.056233857
203	0xbdbf9e91	-0.09356416
204	0xbd1a4627	-0.03766456
205	0xbddb0278	-0.1069383
206	0x3cde6aae	0.027150478
207	0x3d1ea30c	0.038729712
208	0x3ca638b7	0.020290716
209	0x3d0f3c51	0.03496963
210	0x3d445ec5	0.04794194
211	0xbce34298	-0.027741715
212	0x3c801df8	0.01563929
213	0xbc98e26f	-0.01866266
214	0xbc8c3641	-0.017115714
215	0xbc81ec05	-0.015859613
216	0xbc17b0d5	-0.009258469
217	0x3d183af8	0.037165612
218	0xbd96f594	-0.07371059
219	0x3d11a4e7	0.035557654
220	0xbd09f1d0	-0.033677876
221	0xbc494c47	-0.012286252
222	0x3d898e71	0.06716622
223	0x3ccb1dc3	0.024794465
224	0x3d3e142d	0.04640596
225	0x3c0d1a61	0.008612246
226	0xbe1431e8	-0.14472163
227	0x3d54855a	0.051884986
228	0x3e2b618b	0.16736428
229	0x3c97efa2	0.018546883
230	0x3db7f22a	0.08981736
231	0xbbe22a50	-0.0069020167
232	0x3c60df95	0.013725181
233	0x3d49ff02	0.04931546
234	0xbb344db1	-0.0027512128
235	0xbd990ebc	-0.074735135
236	0x3e536309	0.20643248
237	0x3c85d443	0.016336566
238	0xbdb60881	-0.08888341
239	0xbccc5b0b	-0.024945756
240	0xb9786c74	-0.00023691525
241	0xbd21de69	-0.039518747
242	0x3ce89bd6	0.02839462
243	0xbc53d503	-0.012929204
244	0x3d21d211	0.039506976
245	0x3d5e3754	0.054251984
246	0x3da87161	0.0822475
247	0x3d8374ea	0.06418784
248	0x3d4bfcb9	0.049801562
249	0xbb539202	-0.0032283072
250	0x3c07b487	0.008282787
251	0x3c9ba1c5	0.018998036
252	0x3d8d3e3f	0.06896638
253	0x3d6df643	0.05809618
254	0xbcee3c88	-0.029081598
255	0xbd0b2bad	-0.0339772
